tests/st/test_distri_core/test_mixtral/data/golden_mixtral.pt (torch, 458534 bytes, 29 tensors)

embedding.word_embeddings.weight f4 [64, 32]
0	0x3b9f4aff	0.004861235
1	0xbb6574b5	-0.003501219
2	0x3c1f6643	0.009728971
3	0xbc1ae834	-0.009454776
4	0x3c67709d	0.01412597
5	0xbb8ea9a5	-0.0043537193
6	0xba5a7c80	-0.0008334592
7	0xbb1a7a7a	-0.0023571537
8	0xbac0667b	-0.0014678979
9	0xbb65ceb4	-0.0035065832
10	0x3846ceda	4.7399524e-05
11	0x3b8b419d	0.004249765
12	0xb89155cf	-6.930122e-05
13	0x3b9b8425	0.0047459775
14	0xbb986ded	-0.004651776
15	0x3b8544c7	0.004067037
16	0x3bbb0089	0.005706851
17	0x3a0d2c2f	0.0005385307
18	0xbbc77904	-0.0060874242
19	0xba33218d	-0.00068333076
20	0xbbd04c92	-0.006356784
21	0xbba8ab49	-0.005147372
22	0x3b13720e	0.0022498402
23	0xbbb3001e	-0.0054626605
24	0x3bbfdebb	0.005855409
25	0x3ba1b6fc	0.0049351435
26	0xba56d540	-0.0008195229
27	0xb9430096	-0.00018596867
28	0xbb461eed	-0.0030230836
29	0xbc092765	-0.008371209
30	0x3a2029a8	0.0006109723
31	0x3c34b68b	0.01102985
32	0x3ad98dd3	0.0016598053
33	0xbaca8ac8	-0.0015452737
34	0xbc171702	-0.009221794
35	0x3b697bc1	0.0035626742
36	0xb9af4dad	-0.00033436474
37	0xbc1bc006	-0.009506231
38	0xbb83d020	-0.004022613
39	0xbb2e64ce	-0.0026610377
40	0x3c1bf3bb	0.009518559
41	0xbc0ec255	-0.008713325
42	0x3c1e7d0b	0.009673367
43	0xbc302ca9	-0.010752835
44	0x3bcc2cec	0.006230941
45	0x3c02c912	0.007982509
46	0xbc490b5c	-0.012270775
47	0x3b9cb27d	0.0047820196
48	0x3ae33530	0.0017334577
49	0xbc22df25	-0.009940897
50	0x3c27b4ed	0.010236007
51	0x3bf6b9e6	0.007529485
52	0x3841731c	4.612199e-05
53	0x3bdb3323	0.0066894456
54	0xbbc0b733	-0.005881214
55	0x3aaeecca	0.0013345715
56	0xbb6bdcbe	-0.0035989727
57	0x3bb54542	0.005531938
58	0xbb8602c0	-0.0040896833
59	0xbb0e72e7	-0.0021735968
60	0x3c816881	0.015796902
61	0xbb2d055e	-0.0026400904
62	0x3c116f89	0.00887669
63	0x3b946b39	0.0045293835
64	0x3b82d46e	0.0039926087
65	0xbbcaec73	-0.0061927377
66	0xba4abf44	-0.0007734189
67	0xba9f6fe8	-0.0012164088
68	0xbc4e75da	-0.01260134
69	0xbad37efe	-0.0016135869
70	0xbc3b0883	-0.011415604
71	0x3aabacd2	0.0013097769
72	0xbb281364	-0.0025646323
73	0x3b9bbdd2	0.004752853
74	0x3bea73b6	0.007154907
75	0xbb64bc7a	-0.003490238
76	0x3c290ed3	0.010318476
77	0x3be8d6db	0.007105691
78	0xbb89a20a	-0.0042002248
79	0xbb73206d	-0.0037098185
80	0x3bb01ec3	0.005374761
81	0x3c23448a	0.009965071
82	0xbbadb40e	-0.005301005
83	0x3b58807c	0.0033035567
84	0xbba658a9	-0.005076487
85	0xba81c2da	-0.0009899989
86	0xbb6ab2ea	-0.0035812207
87	0x3b5b0228	0.0033418033
88	0x395fbd1b	0.00021337385
89	0xbbfd6e9e	-0.007734134
90	0xbc121e25	-0.00891832
91	0xbc1ae013	-0.0094528375
92	0xbadfe4d0	-0.0017081741
93	0x38ce381f	9.833299e-05
94	0xbb999a89	-0.0046876115
95	0x3b8b343a	0.0042481693
96	0x3c7540f4	0.014969099
97	0xbc7fc675	-0.015611281
98	0xba95e640	-0.0011436418
99	0x3bf9800c	0.0076141413
100	0xbc2f1923	-0.010687145
101	0x3bf542a7	0.007484752
102	0xbacec63f	-0.0015775635
103	0xbb90cde2	-0.0044190744
104	0x3bafe72b	0.0053681335
105	0xbb774e8b	-0.0037736024
106	0x3c1e8e98	0.009677552
107	0xbbbf8e9a	-0.005845857
108	0x3b76abc6	0.0037639006
109	0xbae4ec28	-0.00174654
110	0x3b519883	0.0031981773
111	0x3c52d63d	0.012868461
112	0x3bbf594d	0.005839503
113	0x3baf0a8b	0.005341833
114	0x3b81ced1	0.003961422
115	0x3bd4e963	0.0064975484
116	0xbbaa9771	-0.0052060415
117	0xbbc11630	-0.0058925375
118	0xbb2dd578	-0.0026524942
119	0xbc3a9b07	-0.0113895
120	0x3c0a6f8c	0.008449446
121	0xbabd2a52	-0.0014432168
122	0x3a041f15	0.0005040032
123	0x3ad67ec8	0.0016364688
124	0x3a56fcb1	0.0008201106
125	0xb86bd589	-5.6227236e-05
126	0xbb8b891c	-0.004258288
127	0x3ad50e46	0.0016254864
128	0x3afb2b3e	0.0019162667
129	0x3aad23d0	0.0013209525
130	0x3ac4ad22	0.0015005211
131	0xbc74fe7e	-0.014953254
132	0x3b721175	0.0036936675
133	0xb9858bd7	-0.00025471926
134	0xbbb68276	-0.0055697514
135	0x3b3532ca	0.002764868
136	0x3b7f041e	0.0038912366
137	0x3beba16c	0.007190874
138	0xbc06dc0c	-0.008231174
139	0x3aa6c4d1	0.0012723451
140	0x3ba2f790	0.0049733594
141	0x3bfa3975	0.007636244
142	0x3b854fca	0.0040683495
143	0x3a0e1c62	0.00054210995
144	0x3af16682	0.001841739
145	0xbadf0f5b	-0.0017018126
146	0x3ab228d0	0.0013592485
147	0xbb842a8c	-0.0040333923
148	0x3b159195	0.002282237
149	0xbb92b3b6	-0.0044769896
150	0xbb1c5d48	-0.002385931
151	0x3b74b2ec	0.003733809
152	0xb91f494e	-0.0001519073
153	0x3bae908b	0.0053272895
154	0x3c2a9c35	0.010413219
155	0xbb21a07d	-0.002466231
156	0x3a5bf98c	0.00083913724
157	0xbbaf9cb7	-0.005359258
158	0xbb647ff8	-0.0034866314
159	0x3b751c80	0.003740102
160	0x3bdb3a7a	0.0066903206
161	0x3c302602	0.010751249
162	0x3a8f5ce2	0.0010937715
163	0x3bd5295d	0.006505175
164	0xb741fcdc	-1.156257e-05
165	0xb9a8b032	-0.00032174733
166	0x3b5d71ce	0.0033789757
167	0x3b4982a3	0.0030748032
168	0x3bf44eb9	0.0074556735
169	0xbc087cf1	-0.00833057
170	0x3bebdd16	0.0071979864
171	0xbbcd87bc	-0.0062722843
172	0xbc090e17	-0.008365176
173	0x3b672b49	0.0035273603
174	0xbb5c72d2	-0.0033637774
175	0xbbffa32f	-0.0078014354
176	0xbb3b5233	-0.002858293
177	0xbbdf4fec	-0.0068149474
178	0x3bff00c0	0.007782072
179	0x3b368bbc	0.0027854284
180	0x3c0f3402	0.008740427
181	0x3bdd1a47	0.0067475173
182	0x3c1a0093	0.009399551
183	0xbc222846	-0.009897297
184	0xbc02373a	-0.007947737
185	0xbb9bbe1b	-0.004752887
186	0x3b056b69	0.002035821
187	0xba8b6d28	-0.001063739
188	0x3ace5267	0.001574111
189	0x3c1b4072	0.009475814
190	0x3aca080e	0.0015413777
191	0x3b5f8ea6	0.0034112125
192	0xbc1f9170	-0.009739265
193	0xbb55ed89	-0.0032642803
194	0xbbf19946	-0.007373008
195	0xbb9c6b3b	-0.004773525
196	0x3b470c43	0.0030372299
197	0xbacfbb38	-0.0015848642
198	0xba768617	-0.0009404136
199	0x3b681adf	0.0035416407
200	0x3ac98e24	0.0015377444
201	0xbbb5c0ef	-0.005546681
202	0xbc571e56	-0.013129791
203	0xbbc223ed	-0.005924693
204	0xbb30ddd0	-0.002698768
205	0xbaeb9d3f	-0.001797594
206	0x3b8c87c3	0.004288645
207	0x3c075b32	0.008261489
208	0xbc00a916	-0.007852813
209	0xbb80aaf7	-0.0039266306
210	0x398ba7ce	0.0002663717
211	0x3ad74b45	0.001642563
212	0xb9c9087e	-0.00038344035
213	0x3b6716ca	0.0035261386
214	0xbb1a6e4e	-0.0023564282
215	0x3bc7447b	0.0060811616
216	0xba3644e5	-0.0006953015
217	0x3a8ee6a4	0.0010902476
218	0xbc56a48a	-0.013100753
219	0xbb8af917	-0.0042411196
220	0x3b77ea12	0.0037828726
221	0xbac963c6	-0.0015364818
222	0xbb1dea8c	-0.00240961
223	0xba362de8	-0.00069495896
224	0x3c28b3c9	0.01029677
225	0x3aec56f2	0.0018031283
226	0xbad43b21	-0.0016191938
227	0xbb644d17	-0.0034835988
228	0x3c609864	0.013708208
229	0xbb0798ec	-0.0020690514
230	0xbbca45a3	-0.006172852
231	0x3ad64307	0.001634688
232	0x3b1661ed	0.0022946552
233	0xbb6524ef	-0.003496464
234	0x3b9d33c0	0.004797429
235	0x3bac32d2	0.0052550817
236	0xb94c2464	-0.00019468513
237	0x3c3638ea	0.011121968
238	0x3c2cd5dd	0.010549036
239	0x3bc0d19d	0.005884363
240	0x3b82f046	0.003995928
241	0x3ba2c99e	0.0049678823
242	0x3b63c5ad	0.0034755275
243	0x3b2f99bc	0.0026794514
244	0xbc23ed96	-0.010005375
245	0x3b2c5584	0.0026296088
246	0xbae5b722	-0.0017525891
247	0xbbadd3b1	-0.0053047766
248	0x3b979e30	0.0046270117
249	0xbb9255b4	-0.004465783
250	0x3bec4ddb	0.0072114295
251	0x3b38d85a	0.0028205127
252	0xbb80105b	-0.0039081997
253	0xbbc99eb2	-0.006152951
254	0xba3f3128	-0.00072933966
255	0xbb60fa2e	-0.0034328806

decoder.layers.0.self_attention.linear_proj.weight f4 [32, 32]
0	0xb9cea0b8	-0.00039411127
1	0xbb4abba3	-0.0030934594
2	0xba0cc700	-0.00053702295
3	0xb9f754e5	-0.00047174763
4	0x3b56851c	0.0032733148
5	0xba8708c1	-0.0010302291
6	0x3ae890d1	0.0017743354
7	0x3b0dbacb	0.002162623
8	0x3b1b017a	0.0023652003
9	0xbb1aa600	-0.002359748
10	0xbb20d2e0	-0.0024539754
11	0x39783bf4	0.00023673457
12	0xba8e0487	-0.001083509
13	0xb9f2a540	-0.00046280958
14	0x3a962229	0.0011454272
15	0xbb34d223	-0.0027591072
16	0x3b1b88ea	0.002373273
17	0xbad7c9d0	-0.0016463343
18	0xbc0049f3	-0.007830131
19	0xbaece4d8	-0.0018073572
20	0x3bc52862	0.006016777
21	0xbab0d916	-0.0013492431
22	0x3b95ddbc	0.004573552
23	0x3b685493	0.00354508
24	0x3b1ff7c8	0.0024409164
25	0x3b8b708e	0.004255361
26	0x3b326e0f	0.0027226245
27	0xba8f80e2	-0.0010948444
28	0xbb261f95	-0.0025348414
29	0x3b295989	0.002584072
30	0x3b49a9dd	0.0030771412
31	0x3b33f95f	0.002746187
32	0x3ab0138e	0.0013433562
33	0xb9f7fdc5	-0.00047300584
34	0x3550c9eb	7.777987e-07
35	0xbb376255	-0.0027982194
36	0x3a03697a	0.00050129707
37	0x3b8de5e9	0.004330386
38	0x3a7cf1d1	0.00096490706
39	0x3b5edcda	0.003400615
40	0x3b9bcc7f	0.0047546024
41	0x3b0327ef	0.0020012816
42	0xbb56f3e3	-0.0032799176
43	0x3996173c	0.0002862754
44	0xbb3e1070	-0.0029001497
45	0x3bb4a0a6	0.005512315
46	0xbb223245	-0.0024749201
47	0x3b61b270	0.0034438632
48	0x3b835269	0.004007627
49	0xbb588be1	-0.0033042359
50	0x3b4279e4	0.0029674703
51	0xba0baff3	-0.00053286477
52	0x3ab56474	0.0013839141
53	0x3a583a0a	0.00082483946
54	0xb96b6195	-0.00022447699
55	0xba8624e2	-0.0010234381
56	0xbb77b7c4	-0.0037798742
57	0x3ad4b197	0.0016227242
58	0xbb2932a5	-0.002581754
59	0x3b1b20b5	0.0023670618
60	0xb99ae25f	-0.0002954183
61	0x3b28c7fe	0.002575397
62	0xb82469c5	-3.9199153e-05
63	0xb9cd4101	-0.0003914908
64	0xbadca0fc	-0.0016832645
65	0x3b962644	0.0045821983
66	0x3b1ce9bf	0.0023943034
67	0xbaf09604	-0.0018355255
68	0x39ce22b7	0.00039317246
69	0x3a5b1d26	0.00083585305
70	0xba06302b	-0.0005118872
71	0x3af3c70e	0.0018598752
72	0xbb71755a	-0.0036843629
73	0x3ab6d357	0.0013948482
74	0xba285400	-0.00064212084
75	0xb976abb1	-0.00023524348
76	0x3b8033a1	0.0039124046
77	0x3a33fb9e	0.0006865802
78	0xba2ee8d8	-0.00066722697
79	0x3abf6705	0.0014602846
80	0xb881ad60	-6.183493e-05
81	0x3a26515b	0.00063445204
82	0x3b0ed0d5	0.0021791954
83	0x3b123fbb	0.0022315818
84	0x3b209c51	0.0024507234
85	0x3b9d719a	0.004804802
86	0xbacdbfc5	-0.001569741
87	0xba512e25	-0.00079795934
88	0x3aa1e890	0.0012352634
89	0x394f55a5	0.00019772963
90	0xb9573dd0	-0.00020527025
91	0x3b100b45	0.0021979373
92	0xbb9c6c36	-0.004773642
93	0x3a3a0175	0.0007095554
94	0xb9dcaf61	-0.00042092337
95	0x3addd356	0.0016923945
96	0x3b2bdc0a	0.0026223683
97	0x3b13c1bd	0.0022545897
98	0x3b93c91a	0.004510057
99	0x3b97c61f	0.004631772
100	0xbb1aa1e3	-0.0023595027
101	0x3b07a25d	0.0020696141
102	0xbaad34af	-0.0013214553
103	0xbbb2a9dc	-0.0054523777
104	0x3b8fcd8a	0.004388516
105	0x3b192a80	0.002337128
106	0xbb8d8515	-0.004318843
107	0x3b6d54f8	0.0036213975
108	0x3b8fc172	0.004387074
109	0x394bd09d	0.00019437303
110	0x3950c0a6	0.00019908193
111	0x3a9bc22b	0.0011883428
112	0xba9ba0ea	-0.0011873518
113	0xba4e573c	-0.00078712753
114	0xbaf215b0	-0.0018469598
115	0xb5c94ade	-1.4997456e-06
116	0x3b92e9c2	0.0044834325
117	0xba455387	-0.00075274
118	0x3a6df9d9	0.0009078063
119	0xbc1333b1	-0.008984492
120	0x3bc246bd	0.005928843
121	0x3b25f1a9	0.0025321043
122	0x3999a6b4	0.00029306638
123	0xb97659aa	-0.0002349379
124	0xbbb03c21	-0.0053782617
125	0x3aac65cb	0.0013152895
126	0x3b26d6e4	0.0025457675
127	0xb9f58da8	-0.00046835584
128	0x3b0cb7fd	0.002147197
129	0xbb5d4c6c	-0.0033767475
130	0xba48aa1d	-0.00076547434
131	0xba9f35fa	-0.0012146824
132	0xba64b19e	-0.0008723977
133	0x3b578b88	0.0032889564
134	0x3aa497cd	0.0012557447
135	0x3a2c389b	0.0006569714
136	0xbb922cae	-0.0044608926
137	0xbb483d12	-0.003055398
138	0x3b86a825	0.0041094
139	0x39a47d0a	0.0003137368
140	0x3b01a901	0.0019784572
141	0x39f6949f	0.00047031508
142	0x3bd4f721	0.0064991866
143	0xbaeb5cc0	-0.0017956719
144	0x39c30a5e	0.00037201022
145	0x3b8875e7	0.0041644457
146	0xbb6e35b6	-0.0036347932
147	0x3b6fbd97	0.003658151
148	0x3b9bf462	0.0047593573
149	0xba552b39	-0.0008131746
150	0x3b105fc3	0.0022029735
151	0xbb882151	-0.0041543623
152	0xbb92a424	-0.0044751335
153	0xba744c0a	-0.0009319192
154	0x3a92b603	0.001119316
155	0xbbc09fee	-0.00587844
156	0x3b6382ba	0.003471537
157	0xbb07d474	-0.0020725997
158	0xbb686f8b	-0.0035466875
159	0xba608ba0	-0.00085657276
160	0x3b5e035a	0.003387651
161	0x3bccc70f	0.0062493156
162	0xbb0aef40	-0.0021199733
163	0x3b2ffbf2	0.0026853052
164	0x3a8703e4	0.0010300842
165	0xbb0aa7e6	-0.0021157204
166	0x3bb964ce	0.005657769
167	0xba577c74	-0.0008220144
168	0xbb12b28e	-0.002238426
169	0xba8d1d95	-0.0010766262
170	0x3a4e183f	0.00078618893
171	0x399d9592	0.00030056812
172	0x3bc23ec0	0.0059278905
173	0x3b8e74dc	0.004347427
174	0xbba139e3	-0.0049202307
175	0x3a3351d8	0.0006840504
176	0xbb8dfc79	-0.0043330756
177	0xba8d6dea	-0.0010790203
178	0x3a3e7f96	0.00072669366
179	0x3b216705	0.0024628055
180	0xbb8b4366	-0.004249978
181	0xba294640	-0.00064573064
182	0x3a4cb764	0.000780931
183	0xba04a1ab	-0.0005059491
184	0x3ba49284	0.005022349
185	0xb978c835	-0.00023725706
186	0x3b426a29	0.0029665327
187	0xbab16d63	-0.0013536628
188	0xb9c2d049	-0.00037157748
189	0xbbfb8f94	-0.007677028
190	0x3a3dda8c	0.0007242344
191	0xbaffd3cd	-0.0019518078
192	0xba6ccc55	-0.00090331334
193	0x3bd100e4	0.00637828
194	0xbb83b6f3	-0.004019612
195	0xbaca6a36	-0.001544303
196	0x3b83170f	0.0040005515
197	0xba8ef55d	-0.0010906864
198	0x3acd9258	0.0015683873
199	0xbb44e376	-0.0030042804
200	0x3bcff09d	0.006345822
201	0xbbac55a3	-0.005259232
202	0x3abac99d	0.0014250759
203	0x3a95db40	0.001143314
204	0xb9a01209	-0.00030531015
205	0x3a2a38f4	0.0006493472
206	0x3b89cda6	0.0042054234
207	0x3b64ff4c	0.0034942208
208	0x3a4ac8e5	0.0007735624
209	0xb5bfc370	-1.4287489e-06
210	0x3ac57f0c	0.001506777
211	0xb99a48af	-0.00029427322
212	0x397850c5	0.00023681212
213	0xba6756f6	-0.0008824909
214	0x3b228bb5	0.002480251
215	0x3b07e536	0.0020735986
216	0xba206398	-0.0006118356
217	0xb9ae7a95	-0.00033279197
218	0xba83d439	-0.0010057754
219	0x39b6df01	0.00034879896
220	0x3992309d	0.0002788351
221	0x3bdf7d7a	0.006820378
222	0x3bd3ab45	0.006459626
223	0x3acc3614	0.0015580081
224	0x3b6b13ad	0.0035869882
225	0x3bbe6b6e	0.0058111465
226	0x389b03a4	7.391654e-05
227	0xbb8b545a	-0.004251999
228	0x3b42eb38	0.0029742252
229	0xbac455f3	-0.0014979228
230	0x3af27d08	0.0018500397
231	0xba142c1c	-0.0005652325
232	0x3b1fbeee	0.0024375278
233	0xba2c4f24	-0.0006573072
234	0xb98794f1	-0.00025860177
235	0xbb00ff8a	-0.0019683563
236	0x3b80bfe1	0.0039291237
237	0x3ba6f01f	0.0050945426
238	0x3b58c9fa	0.0033079372
239	0xbb080366	-0.0020753979
240	0xb9f5b50d	-0.00046864935
241	0xbb1e7a0e	-0.0024181637
242	0xbad961f7	-0.0016584982
243	0x3a341b79	0.0006870549
244	0x3b1b7604	0.0023721466
245	0xbbc58a86	-0.006028476
246	0x3b8a6944	0.0042239744
247	0x3b24d82b	0.002515326
248	0xba64600d	-0.00087118224
249	0x3a4378db	0.00074566685
250	0x3a1acd1a	0.00059051963
251	0x39421284	0.0001850818
252	0x3ab74411	0.0013982077
253	0xba8bf3cb	-0.0010677514
254	0xbb78e1ae	-0.0037976312
255	0x3b69c71b	0.0035671655

decoder.layers.0.self_attention.linear_qkv.layer_norm_weight f4 [32]
0	0x3f800000	1.0
1	0x3f800000	1.0
2	0x3f800000	1.0
3	0x3f800000	1.0
4	0x3f800000	1.0
5	0x3f800000	1.0
6	0x3f800000	1.0
7	0x3f800000	1.0
8	0x3f800000	1.0
9	0x3f800000	1.0
10	0x3f800000	1.0
11	0x3f800000	1.0
12	0x3f800000	1.0
13	0x3f800000	1.0
14	0x3f800000	1.0
15	0x3f7fffff	0.99999994
16	0x3f800000	1.0
17	0x3f7fffff	0.99999994
18	0x3f800000	1.0
19	0x3f800000	1.0
20	0x3f800000	1.0
21	0x3f800000	1.0
22	0x3f800000	1.0
23	0x3f800000	1.0
24	0x3f7fffff	0.99999994
25	0x3f800000	1.0
26	0x3f800000	1.0
27	0x3f800000	1.0
28	0x3f800000	1.0
29	0x3f800000	1.0
30	0x3f800000	1.0
31	0x3f800000	1.0

decoder.layers.0.self_attention.linear_qkv.weight f4 [64, 32]
0	0xbb473005	-0.0030393612
1	0xbc89b298	-0.016808793
2	0xba59d2b3	-0.00083092897
3	0xbc067395	-0.008206268
4	0x3b7accea	0.003826911
5	0x3b4e0eeb	0.0031441997
6	0xbbd2997c	-0.006426988
7	0xbc25abc5	-0.010111754
8	0xba5bc122	-0.0008382966
9	0xbc10340e	-0.008801473
10	0x3bee8d04	0.007279994
11	0xbafb6037	-0.0019178455
12	0x3b9759be	0.0046188524
13	0x3c17ba2f	0.009260698
14	0x39112331	0.00013841387
15	0xbb6834f8	-0.0035431962
16	0xbb09caf6	-0.0021025515
17	0x3b837ee7	0.0040129307
18	0xbc09b6e7	-0.008405424
19	0xbb91d74d	-0.0044507147
20	0x3b2bd5db	0.0026219997
21	0x3abede8f	0.0014562177
22	0xbbbb2853	-0.005711594
23	0x3b546127	0.003240654
24	0xbb625774	-0.003453699
25	0x3c2d2fa9	0.010570445
26	0xbacaa2de	-0.0015459915
27	0xbc1c3288	-0.009533532
28	0xbb665767	-0.003514731
29	0xbab7a4e3	-0.0014010932
30	0xbbf4f8f6	-0.0074759675
31	0xbbc79c7f	-0.006091654
32	0x3c35dd04	0.0111000575
33	0x3a81e558	0.0009910269
34	0x3a87e447	0.0010367715
35	0x3b569329	0.0032741523
36	0x3b75c689	0.003750237
37	0x3bfed79b	0.007777167
38	0x3bb8238e	0.005619473
39	0xbb4be96a	-0.0031114467
40	0xb948300e	-0.00019091388
41	0x3be16a9c	0.006879164
42	0x3b8ef664	0.004362868
43	0xb9daeac7	-0.00041755123
44	0xbac314f4	-0.0014883564
45	0xba3df25e	-0.00072458934
46	0xbc17548e	-0.009236468
47	0xbb900ee1	-0.004396305
48	0x3b135c1c	0.0022485321
49	0xbbcc8a7f	-0.006242096
50	0x3ad1130b	0.001595111
51	0x3b945ee4	0.0045279134
52	0xbc14d834	-0.00908475
53	0x3c336042	0.010948243
54	0x3c13e42d	0.009026569
55	0x3c5f7699	0.013639116
56	0x3bf24136	0.0073930277
57	0xbc1ea42b	-0.009682695
58	0xbb907334	-0.0044082645
59	0x3bd77c5c	0.006576104
60	0xbc05e6b4	-0.00817268
61	0xbb912b7b	-0.004430232
62	0xbb637c45	-0.0034711522
63	0xbafe4bb4	-0.0019401223
64	0x3a7839be	0.00094690535
65	0xbc4ed8a2	-0.0126248915
66	0x3bfffc39	0.0078120497
67	0xbbbe7b13	-0.0058130114
68	0x39cfe85f	0.00039655247
69	0xbbc7e386	-0.006100121
70	0x3b407697	0.002936756
71	0xbba28b63	-0.004960464
72	0xbbb9c0b2	-0.005668723
73	0xb91a9598	-0.00014742312
74	0xba1c5f6e	-0.0005965148
75	0xbba6dfd0	-0.0050925985
76	0xbbaaa09c	-0.0052071344
77	0x392845ef	0.00016047781
78	0xba1e868c	-0.0006047271
79	0x399221a9	0.0002787237
80	0xbb872afc	-0.004124997
81	0xba819fcb	-0.0009889541
82	0x3bdf0806	0.0068063764
83	0x3ac68100	0.0015144646
84	0x3c8d3602	0.017237667
85	0x3b22e8ce	0.0024858
86	0xbb21a9b9	-0.0024667813
87	0x3bd25a7d	0.0064194784
88	0x3c1c0931	0.009523676
89	0xbb925e1c	-0.004466785
90	0xbc123074	-0.008922685
91	0xbb85799e	-0.004073336
92	0x3a8ace3d	0.0010590028
93	0x3bcc3a8c	0.0062325653
94	0xbab710b5	-0.0013966771
95	0xbb591ffc	-0.0033130636
96	0x3a805d44	0.000979342
97	0x3b84eca6	0.004056531
98	0x3bfd5158	0.007730644
99	0x3b5515fb	0.0032514322
100	0x3b6df455	0.0036308963
101	0xbbebe466	-0.007198858
102	0xbbd797fd	-0.0065793977
103	0x3b50a239	0.0031834973
104	0xbb6ae2dc	-0.0035840785
105	0xbbb6a30e	-0.005573637
106	0xbc29705c	-0.01034173
107	0x3c6c2c6c	0.014414888
108	0x3bcaef52	0.00619308
109	0x3aa6f244	0.0012736996
110	0xbc4f681b	-0.012659098
111	0xbb38be57	-0.0028189623
112	0xbbcd53ab	-0.0062660775
113	0x3c0301ec	0.007996064
114	0x3ba81153	0.0051290183
115	0xbbc0fbcb	-0.005889391
116	0x3aa9ffd5	0.0012969921
117	0xbbeaa639	-0.0071609286
118	0x3bbc3514	0.005743632
119	0xba8c6e02	-0.0010713937
120	0xbb7308fa	-0.0037084208
121	0x3bf538bb	0.0074835694
122	0x399d64d8	0.00030020508
123	0xbb4fdde0	-0.0031717941
124	0x3b2e94a1	0.0026638883
125	0xb94878f7	-0.00019118549
126	0xbbce1305	-0.0062888884
127	0x3a8a9d9a	0.0010575533
128	0xbba322ea	-0.0049785273
129	0x3c1efe73	0.00970422
130	0xbb125b2a	-0.002233217
131	0x3c0d3acf	0.008619978
132	0xbb30111d	-0.002686567
133	0x3b8a56bc	0.0042217653
134	0xbc836a04	-0.016041763
135	0x3afd2d60	0.0019315891
136	0xba906793	-0.0011017196
137	0x389f2017	7.587688e-05
138	0xb883b018	-6.279367e-05
139	0x3bcf2a11	0.0063221534
140	0xbb01bfd9	-0.0019798188
141	0x3b11313c	0.002215459
142	0x3c4f8525	0.0126660215
143	0x3bb08d8a	0.0053879665
144	0xbbb3aa63	-0.005482958
145	0xbb982df9	-0.0046441522
146	0xbb498d33	-0.0030754327
147	0xbc2ad82e	-0.010427518
148	0x39b0ca4b	0.00033720056
149	0xbb1e214c	-0.0024128733
150	0xbb183ea1	-0.002323069
151	0x3b97b82a	0.0046301084
152	0xbbb3fbf7	-0.005492683
153	0x3bde76a3	0.006789045
154	0xbb5024f0	-0.0031760298
155	0xbb4bef90	-0.0031118132
156	0xbc107127	-0.00881604
157	0xbc16f6d7	-0.009214125
158	0x3b92d304	0.0044807214
159	0xbac48028	-0.0014991807
160	0x3bbe7b97	0.005813073
161	0x3c391aaa	0.011297861
162	0xbb6ce4af	-0.0036147048
163	0xbab58eef	-0.0013851802
164	0xbb9fbcf3	-0.0048748194
165	0x3b94c401	0.004539967
166	0x3c0b5442	0.008503975
167	0xbaaa31d1	-0.0012984817
168	0xbbd586d2	-0.006516316
169	0xbc355dd9	-0.011069738
170	0xba9cc048	-0.001195916
171	0x3a3c4f8d	0.0007183485
172	0x3acc1209	0.001556934
173	0x3ad66559	0.0016357108
174	0x3b1065fe	0.0022033448
175	0x3c75d6eb	0.015004854
176	0xba4002dd	-0.00073246454
177	0x3afefbea	0.0019453738
178	0x3c460c06	0.012087828
179	0xbc3b6fe9	-0.011440256
180	0xbc3fe3d8	-0.011712037
181	0xbb9016ec	-0.0043972638
182	0xbbacfa15	-0.0052788355
183	0xbb3d1c74	-0.002885607
184	0xbb67c2dc	-0.0035363948
185	0xbb16fca0	-0.002303876
186	0x3b141c0a	0.002259972
187	0x3c0c472c	0.008561891
188	0xba6434e9	-0.0008705394
189	0xbbaaa9df	-0.0052082385
190	0x3c686c9d	0.014186052
191	0x3b384787	0.0028118805
192	0xbbd09943	-0.0063659265
193	0x3be54858	0.0069971494
194	0x3c0df4a4	0.008664284
195	0x3a26b2ca	0.0006359039
196	0xbc3f7141	-0.011684717
197	0x393b1905	0.0001784303
198	0xb96555b7	-0.00021871073
199	0x3c309184	0.010776881
200	0xba9ba4a8	-0.0011874633
201	0x3ab96b56	0.0014146368
202	0xb8a36292	-7.790806e-05
203	0xbb3f34c8	-0.0029175747
204	0x3b3cf5bb	0.002883299
205	0xbc52761f	-0.012845545
206	0xbbb71b11	-0.0055879434
207	0x3b8ae546	0.0042387573
208	0x3c36c8a3	0.011156234
209	0xbb9aaf47	-0.0047206017
210	0xb7e57fc7	-2.7358428e-05
211	0x3b8d47dd	0.0043115453
212	0x3a4344d6	0.0007448917
213	0x3c00b7ea	0.0078563485
214	0x3ba28b23	0.004960434
215	0x3c20a141	0.009804071
216	0xbb13eef6	-0.0022572852
217	0x3b976eb9	0.0046213535
218	0xbc91e5a5	-0.017809698
219	0x3b630bf8	0.0034644585
220	0xb9943cd6	-0.00028274086
221	0xbc43a09f	-0.0119401505
222	0xbb8aa11e	-0.0042306324
223	0x3bf49c12	0.007464894
224	0xbb77727c	-0.0037757447
225	0xbc0fdd7e	-0.008780835
226	0xbb173c37	-0.0023076662
227	0x3c1854b6	0.00929754
228	0x3b458422	0.0030138572
229	0xbb0f0221	-0.0021821337
230	0x3c15823c	0.009125289
231	0xbc00dafe	-0.007864712
232	0xb98e8301	-0.00027181956
233	0x3a9a62c3	0.0011778701
234	0xbc5dc365	-0.013535355
235	0xbc1812e6	-0.0092818495
236	0xbc03b6c8	-0.008039184
237	0x3ac4bbd1	0.0015009587
238	0xbc1aa839	-0.0094395215
239	0x3c1061e2	0.0088124
240	0x3bf65aef	0.0075181643
241	0xba5029ca	-0.00079407974
242	0x3b8defda	0.004331571
243	0x3ad554ca	0.001627588
244	0xbb7cceab	-0.0038575332
245	0xbb8dfa5c	-0.0043328237
246	0xbc4a7891	-0.012357847
247	0xbc0bf1c0	-0.008541524
248	0xbb6ba318	-0.0035955366
249	0xbb4f6212	-0.0031644148
250	0xb951d4d1	-0.00020011074
251	0xba54dfa6	-0.00081204844
252	0x3a950e6a	0.0011372094
253	0x3ad02855	0.001588116
254	0x3c35cb07	0.011095769
255	0xbb178e4e	-0.0023125592

decoder.layers.0.pre_mlp_layernorm.weight f4 [32]
0	0x3f800000	1.0
1	0x3f800000	1.0
2	0x3f800000	1.0
3	0x3f800000	1.0
4	0x3f800000	1.0
5	0x3f800000	1.0
6	0x3f800000	1.0
7	0x3f800000	1.0
8	0x3f800000	1.0
9	0x3f800000	1.0
10	0x3f800000	1.0
11	0x3f800000	1.0
12	0x3f800000	1.0
13	0x3f800000	1.0
14	0x3f800000	1.0
15	0x3f800000	1.0
16	0x3f800000	1.0
17	0x3f800000	1.0
18	0x3f800000	1.0
19	0x3f800000	1.0
20	0x3f800000	1.0
21	0x3f800000	1.0
22	0x3f800000	1.0
23	0x3f800000	1.0
24	0x3f800000	1.0
25	0x3f800000	1.0
26	0x3f800000	1.0
27	0x3f800000	1.0
28	0x3f800000	1.0
29	0x3f800000	1.0
30	0x3f800000	1.0
31	0x3f800000	1.0

decoder.layers.0.mlp.router.weight f4 [4, 32]
0	0x3b827e07	0.003982309
1	0xbbb5c7a4	-0.0055474807
2	0xbc2a43bd	-0.010392127
3	0x3b2e7980	0.0026622713
4	0xbaafe5bd	-0.0013419908
5	0x3af532a8	0.0018707113
6	0x3b05fb86	0.002044411
7	0xbb6dcdb0	-0.003628593
8	0xb9533298	-0.00020141376
9	0xbbd7aa02	-0.006581546
10	0xbc425c3a	-0.011862809
11	0xbbc549d3	-0.0060207634
12	0xbc22b423	-0.009930643
13	0x3b7b7475	0.0038368974
14	0x3b7ab0c6	0.0038252338
15	0xba79b634	-0.00095257466
16	0x3ab3c453	0.0013715125
17	0xba4a1a0f	-0.00077095715
18	0xbb83ee98	-0.0040262453
19	0xbaf024dd	-0.0018321533
20	0x3c3d9f6c	0.011573654
21	0xbab44999	-0.0013754844
22	0x3bbf4fb9	0.005838361
23	0x3c0fd00c	0.00877763
24	0x3b3fcd9b	0.0029266838
25	0x3ba3ddb9	0.0050007966
26	0x3aa5f8d8	0.0012662662
27	0x3b768c99	0.0037620424
28	0x3ae89cd8	0.0017746938
29	0xbb23e714	-0.002500956
30	0x3c0ddd8a	0.008658776
31	0x3a27fa87	0.0006407876
32	0xb9800d5f	-0.00024424025
33	0x3a92deb7	0.001120529
34	0x3bb799ed	0.005603066
35	0xbbd4ea8e	-0.0064976877
36	0xbb88df6b	-0.004177024
37	0xbc1f623c	-0.009728011
38	0xbc098cf3	-0.008395421
39	0x3b6c3240	0.0036040694
40	0xbb6afb45	-0.0035855335
41	0xbba8bb0a	-0.00514925
42	0x3c40d441	0.011769355
43	0x3c7f07df	0.015565841
44	0xbb3b4783	-0.002857656
45	0xbaf3bcfc	-0.001859575
46	0xbb5fdc1e	-0.00341583
47	0xba2d4ff7	-0.0006611342
48	0xbc0a4f02	-0.0084416885
49	0xbbd76525	-0.0065733367
50	0xbc4a540e	-0.012349142
51	0x3b28aafc	0.002573668
52	0xba151de9	-0.0005688356
53	0xbb7df556	-0.0038750968
54	0xbb4f2376	-0.003160683
55	0x3aa74bac	0.0012763641
56	0xbb1093d5	-0.002206077
57	0x3bcdb724	0.0062779356
58	0x3bd0751c	0.006361617
59	0x3b37605f	0.0027981026
60	0xbb8ec09a	-0.004356456
61	0x3b29ef5e	0.0025930027
62	0x388c8e36	6.702209e-05
63	0xbba2904d	-0.0049610496
64	0x3b417902	0.002952159
65	0x3abaec2a	0.0014261056
66	0xbb960175	-0.0045778104
67	0x3b27175e	0.0025496106
68	0x3b220882	0.002472431
69	0xbc275a60	-0.010214418
70	0x3ad2cb07	0.0016082235
71	0x3b86750e	0.0041033095
72	0xbb6f5e84	-0.0036524842
73	0x3b5c5995	0.003362273
74	0xb9372d7a	-0.00017469181
75	0xbb406250	-0.0029355474
76	0xbbe30439	-0.0069279936
77	0xbb840c94	-0.0040298197
78	0xbbbd4474	-0.0057759825
79	0xbbeb8cff	-0.007188439
80	0x3ba2d3ac	0.004969081
81	0xbbedf25d	-0.007261558
82	0x3b2904bd	0.0025790178
83	0xbbf450ea	-0.007455935
84	0xbab10824	-0.0013506454
85	0x3b21e889	0.0024705252
86	0xbb0d4477	-0.00215557
87	0xbc6fb25c	-0.0146299265
88	0xbc35692d	-0.011072439
89	0x3be9d614	0.007136116
90	0x3c1b0641	0.00946194
91	0xbbfa76dd	-0.007643564
92	0xba8cd27c	-0.0010743882
93	0xbc3d8e18	-0.011569522
94	0xb9a383fa	-0.00031188113
95	0xba8c2640	-0.0010692552
96	0x3aee1512	0.0018164238
97	0x3b7108ea	0.0036778995
98	0xbb408413	-0.0029375597
99	0x3c199d80	0.00937593
100	0xbbb82036	-0.005619074
101	0xbb99dc98	-0.0046954863
102	0xbb9268b7	-0.0044680494
103	0xbbb12446	-0.0054059355
104	0x3b4700ed	0.0030365542
105	0x3b1c5eed	0.002386029
106	0x3c8bed93	0.017081058
107	0xbb492593	-0.0030692562
108	0xba908af3	-0.0011027738
109	0xbb9c6acb	-0.004773473
110	0xbc772633	-0.015084791
111	0xbb34b6be	-0.0027574743
112	0x3b2321e0	0.0024892017
113	0xbc1a5417	-0.009419463
114	0x3b848544	0.004044207
115	0xbbce03e3	-0.0062870844
116	0xbb518e53	-0.00319757
117	0xb846dacd	-4.7410653e-05
118	0x3ba5cf2d	0.0050600977
119	0xbae17399	-0.0017200588
120	0x3931adb6	0.00016944748
121	0xbac516bf	-0.0015036686
122	0x3c0952e6	0.008381581
123	0xbc2fdc49	-0.010733672
124	0x3c104ddb	0.008807625
125	0xbb08cb48	-0.0020873118
126	0xbbfd2bff	-0.007726192
127	0xbb91cf8f	-0.0044497917

decoder.layers.0.mlp.experts.local_experts.0.linear_fc1.weight f4 [256, 32]
0	0xbbf6a088	-0.007526461
1	0xbb9ae89c	-0.004727436
2	0xbc168391	-0.009186641
3	0xbab05767	-0.0013453782
4	0xbb12548b	-0.0022328224
5	0x3b874be0	0.004128918
6	0xbb044cc8	-0.0020187367
7	0xbb04ce1f	-0.002026446
8	0xbc03a73c	-0.008035477
9	0xbb18ecdd	-0.002333454
10	0xba7dd1c0	-0.0009682439
11	0x3a50baa2	0.0007962381
12	0x3bb9fbab	0.005675753
13	0xbbc5fbd9	-0.0060419855
14	0x3ac55d0e	0.001505764
15	0x3b08f351	0.002089698
16	0x3b64148f	0.0034802293
17	0x3a3d47a7	0.0007220455
18	0xba7729a5	-0.0009428508
19	0x3c1ffef1	0.009765373
20	0x3a8a268b	0.0010540051
21	0x3aa007a1	0.0012209305
22	0x3bf2a0ca	0.0074044215
23	0xbb2d40da	-0.002643636
24	0x3c22fea0	0.009948403
25	0xba37c0d8	-0.0007009632
26	0x39896437	0.00026205342
27	0xbbb3f389	-0.005491678
28	0x3b13711f	0.0022497845
29	0xbc2a0785	-0.010377769
30	0xbab4d8b5	-0.0013797494
31	0x3b13f188	0.0022574384
32	0x3b1062a7	0.0022031458
33	0x3c1419ba	0.009039337
34	0x3becd260	0.007227227
35	0x3b5f067b	0.0034030962
36	0xbacafaee	-0.001548616
37	0xbb83d84f	-0.0040235887
38	0x3b43b9f7	0.0029865482
39	0xbbed3e74	-0.007240111
40	0xbc2e8d0d	-0.010653746
41	0xbba76610	-0.0051086023
42	0xbb555cf8	-0.0032556634
43	0xb9aa211e	-0.000324496
44	0x39bdc508	0.0003619569
45	0xbb7c9235	-0.0038539295
46	0x3b52db47	0.0032174157
47	0x3c1951bd	0.009357867
48	0xbc3f0e4d	-0.011661124
49	0xbc2375cc	-0.009976815
50	0x3a01a8e4	0.0004946126
51	0x3c19a15f	0.009376853
52	0xbb3410b7	-0.0027475783
53	0xbb406de1	-0.0029362368
54	0xbac7346c	-0.0015198118
55	0x3c71899e	0.014742283
56	0x3a83cbf8	0.0010055294
57	0x3c37a1f2	0.011208044
58	0xb9490abd	-0.00019172854
59	0x3a23e914	0.0006252688
60	0xbbd0791e	-0.0063620945
61	0xbc1260b5	-0.00893419
62	0x3bef2a53	0.0072987466
63	0xbc141087	-0.009037144
64	0x3bdcac50	0.0067344084
65	0x3bbba8c7	0.005726907
66	0xbc3b84dc	-0.01144525
67	0x3a94e289	0.0011359017
68	0xbb4fc707	-0.0031704323
69	0xbb412214	-0.0029469775
70	0xbb3b77ea	-0.002860541
71	0x3bacdca2	0.005275325
72	0x3b5da6b8	0.0033821296
73	0xb9248dee	-0.00015693132
74	0x3baa2cda	0.005193335
75	0xbc39caae	-0.0113398265
76	0xbbd1124d	-0.0063803555
77	0xbb382c5b	-0.002810261
78	0xbbda722c	-0.0066664424
79	0x394e9971	0.00019702852
80	0xbaa1e23b	-0.0012350747
81	0x3c488861	0.0122395465
82	0x3b6646ab	0.0035137336
83	0xbb0b4279	-0.0021249338
84	0x3be0ef3d	0.006864457
85	0x3b823b2c	0.003974339
86	0xbba7da51	-0.005122461
87	0xbc31ec66	-0.010859584
88	0x3b911cf7	0.0044285017
89	0x3ab21784	0.001358733
90	0x3c1eca43	0.009691778
91	0x3bdfa133	0.0068246364
92	0x3b2ef0f2	0.0026693908
93	0xbb5587e4	-0.0032582218
94	0x3b196f4b	0.0023412283
95	0xba9c3dcd	-0.0011920274
96	0xbbb54cc6	-0.0055328337
97	0x3b77965d	0.0037778832
98	0xbbfd0994	-0.007722089
99	0x3c1e5a57	0.009665093
100	0xbb27f958	-0.0025630798
101	0x3900b795	0.00012275421
102	0xbc6b8c23	-0.014376673
103	0xbb83dc40	-0.0040240586
104	0x3bd10fee	0.006380073
105	0xbbb97195	-0.005659292
106	0x3b86aba7	0.004109818
107	0xbb942927	-0.0045215073
108	0x3c0a320f	0.008434786
109	0x38db2d86	0.00010451213
110	0xb9d78b63	-0.00041111847
111	0x3b4202a3	0.0029603622
112	0xbb9cabbb	-0.004781214
113	0x3be8a9e1	0.0071003293
114	0x3c262178	0.0101398155
115	0x3b9d2603	0.004795791
116	0xbb397458	-0.0028298106
117	0x3bca5c42	0.006175549
118	0x3b7f180b	0.0038924243
119	0xbbe1ce31	-0.006891035
120	0x3c368b06	0.011141544
121	0x3c09fd58	0.008422218
122	0x3ba2f06d	0.0049725086
123	0x3bfcc728	0.007714171
124	0xbba3d7b8	-0.005000081
125	0xbc0f2f57	-0.008739314
126	0xbc11a969	-0.008890488
127	0xb709c5a7	-8.211856e-06
128	0xb999a5a6	-0.00029305852
129	0xba3d8019	-0.0007228866
130	0x3bb5809b	0.0055390126
131	0x39ecb255	0.00045146295
132	0x3b717e99	0.003684914
133	0x3c5738b2	0.013136076
134	0x3c1180a2	0.008880766
135	0xbc6d4603	-0.014482024
136	0xbb48f386	-0.003066273
137	0xb9b09634	-0.00033681246
138	0xba01248c	-0.00049264054
139	0x39b17ef1	0.0003385465
140	0xb9d2c37e	-0.00040199974
141	0x3b1acd28	0.0023620818
142	0x3ac31aa4	0.0014885259
143	0x3a9f6301	0.0012160243
144	0xbbaaec10	-0.005216129
145	0xbc119a89	-0.008886942
146	0x3a53c078	0.00080776913
147	0x3c61fae4	0.013792727
148	0x3c6b7b37	0.014372638
149	0x3be67064	0.007032441
150	0xbc02f0d7	-0.007991991
151	0xba415755	-0.0007375379
152	0x3bc7c385	0.006096306
153	0x3c04a068	0.008094884
154	0x3bb60ed5	0.0055559673
155	0xbba44277	-0.005012806
156	0xba863f60	-0.0010242276
157	0x39540a9d	0.00020221849
158	0x3a598211	0.00082972745
159	0x3b1ca8aa	0.0023904243
160	0x3c2ea33d	0.010659036
161	0x3b00c790	0.0019650199
162	0xb80ba147	-3.3290384e-05
163	0x3b9c8dd9	0.0047776517
164	0xbb798c4c	-0.0038078008
165	0xba222da3	-0.000618661
166	0x3b786d99	0.0037907122
167	0xbb5f5e48	-0.0034083296
168	0x3a0ab608	0.0005291407
169	0x3be7c814	0.0070734117
170	0xbb5b5aab	-0.003347079
171	0x3c00ceff	0.007861852
172	0x3bb03638	0.005377557
173	0x3b6903c1	0.0035555216
174	0x3b538992	0.0032278043
175	0xbaac9ca6	-0.0013169243
176	0x3b48f6a7	0.0030664594
177	0xbb90f1d0	-0.0044233575
178	0xbb9e535e	-0.0048317155
179	0x3be6794d	0.007033503
180	0x3c21830b	0.009857903
181	0xba50c0d8	-0.0007963306
182	0x38b1d2e9	8.479303e-05
183	0xbc026021	-0.007957489
184	0xbb892437	-0.0041852253
185	0x3c449699	0.011998796
186	0x3b8f79bc	0.0043785255
187	0x3c0a0b64	0.008425567
188	0x3ba01768	0.0048856027
189	0x3b3d61ae	0.0028897333
190	0xbb405d15	-0.0029352356
191	0xbc1430d7	-0.009044847
192	0x3c0b0dfa	0.008487219
193	0xbbf8d268	-0.0075934418
194	0xbb36aaa6	-0.002787271
195	0x3ad2c9cd	0.001608187
196	0xbb646dea	-0.0034855553
197	0x3ab73abd	0.0013979297
198	0x3bb1ebdb	0.0054297275
199	0x3b5092e7	0.0031825842
200	0xbc16d868	-0.009206869
201	0xbb250942	-0.002518252
202	0xbab7af49	-0.0014014031
203	0x3b4fb59d	0.0031693943
204	0x3b4d2f8f	0.0031308865
205	0x3ad35cf2	0.0016125722
206	0xbbfe67b0	-0.0077638254
207	0x3ba60d98	0.0050675385
208	0xbaa342c8	-0.0012455815
209	0xb9c52813	-0.00037604626
210	0x3b2d85e9	0.0026477522
211	0xbc0083f8	-0.007843964
212	0xbc044eaa	-0.008075396
213	0x3b85e1b6	0.0040857447
214	0x3b487625	0.0030587998
215	0xbb244fb7	-0.0025071928
216	0x3bbafcd5	0.0057064095
217	0x3b2450ce	0.0025072577
218	0x3ac76837	0.0015213554
219	0xbc45638d	-0.012047661
220	0xbb8ac9eb	-0.0042354963
221	0x3bfb0fe6	0.0076618074
222	0xba788f61	-0.00094818143
223	0xb96a2d7d	-0.00022332925
224	0x3b33d6fb	0.002744137
225	0x3ba72dc7	0.0051018926
226	0xba9ae58b	-0.0011817677
227	0x3c019c12	0.007910745
228	0x3a7e94a5	0.0009711481
229	0x3b004ce2	0.0019577076
230	0x3bbd9373	0.0057853996
231	0x3aa59d18	0.0012635319
232	0x3a9300ed	0.0011215486
233	0x3be6ede7	0.007047403
234	0x3a7cc1fa	0.0009641942
235	0x3a9f3b94	0.0012148493
236	0x3ba47fe2	0.0050201276
237	0xbbe1c722	-0.0068901936
238	0xbbccba00	-0.006247759
239	0xbc278dbc	-0.010226663
240	0x3c08d445	0.00835139
241	0x3be04f65	0.006845402
242	0x3a1a8ff2	0.00058960833
243	0x3c05db04	0.008169893
244	0xbabf0435	-0.0014573397
245	0x39cf6914	0.00039560406
246	0xbbbf21d9	-0.0058328924
247	0x3abff1c7	0.0014644199
248	0x3b9aa451	0.004719295
249	0xbbdfa3f7	-0.006824966
250	0xbb2d9d34	-0.0026491405
251	0xbbd91d08	-0.0066257752
252	0x3b744f08	0.0037278552
253	0xba999047	-0.0011715972
254	0x3abb2ab6	0.0014279697
255	0x3c326301	0.010887862

decoder.layers.0.mlp.experts.local_experts.0.linear_fc2.weight f4 [32, 128]
0	0xbb22bbeb	-0.0024831246
1	0x38dff54c	0.00010679159
2	0x3b390732	0.0028233049
3	0x3a16eb52	0.00057571114
4	0xbaf0290e	-0.0018322782
5	0x3ac92ec0	0.0015349016
6	0xbb840f86	-0.004030171
7	0x3b380365	0.0028078195
8	0xbb9db39a	-0.00481267
9	0xbbee5f6b	-0.0072745583
10	0x3a634b89	0.00086706184
11	0xba6caad8	-0.0009028143
12	0x398cfc1e	0.00026890723
13	0x3b9a3cb0	0.0047069415
14	0x3b31a9bb	0.0027109224
15	0xb9a060ac	-0.00030589604
16	0xba81a3b5	-0.0009890707
17	0x39e72004	0.00044083607
18	0xbb981267	-0.0046408656
19	0x3aa01947	0.0012214564
20	0xbaed43fa	-0.0018101924
21	0xba41bc99	-0.0007390469
22	0xbb1c588e	-0.0023856494
23	0xbaefc3ed	-0.0018292643
24	0xbb09f895	-0.0021052707
25	0xbb7b7080	-0.0038366616
26	0xba626ac2	-0.0008637124
27	0x3a93d373	0.0011278227
28	0x384cf8bc	4.8869042e-05
29	0x3b6a9d3c	0.0035799285
30	0x3a767663	0.0009401796
31	0x3b8a7cd3	0.004226306
32	0xba9c8994	-0.0011942857
33	0x3a2ce7a8	0.0006595799
34	0x3b870cbe	0.004121392
35	0x3965c48e	0.00021912364
36	0xb7243d9f	-9.789509e-06
37	0x3b1e7537	0.0024178752
38	0xba6c4ca8	-0.0009014108
39	0xb725274a	-9.843914e-06
40	0xba6ea098	-0.000910291
41	0xbaece68d	-0.001807408
42	0xb8fb61aa	-0.00011986804
43	0xba2a54c6	-0.00064976176
44	0xbb46bb8e	-0.0030324194
45	0x3c032229	0.00800375
46	0x3b052959	0.0020318835
47	0x3b143139	0.0022612347
48	0xbbcb33b8	-0.0062012337
49	0x3a4ea993	0.0007883545
50	0xbb684fcb	-0.003544795
51	0xbb4c7e63	-0.0031203262
52	0xbb196469	-0.0023405796
53	0xbad29f1b	-0.0016069146
54	0xbac2980e	-0.0014846341
55	0x3b119aa9	0.0022217429
56	0xb93f7f21	-0.00018262539
57	0x3aedf990	0.001815604
58	0x39c92ccb	0.0003837108
59	0xbb0cc8ac	-0.0021481914
60	0x3b68508d	0.0035448403
61	0x3b8c1e11	0.004276045
62	0x3ad00f6e	0.0015873739
63	0xbb997dcb	-0.004684185
64	0x3bdcb7e8	0.0067357905
65	0xb8f3c358	-0.000116235286
66	0xbaed7e76	-0.0018119353
67	0x3b7d5824	0.0038657272
68	0x3c0dc77f	0.008653521
69	0xbac72c11	-0.0015195628
70	0x3c21aa12	0.009867208
71	0x3b135847	0.0022483037
72	0x3b97179e	0.0046109697
73	0xba541402	-0.00080901396
74	0xb9119e60	-0.00013887277
75	0xbb992f16	-0.0046748025
76	0x3b3c1482	0.0028698747
77	0x3a6accee	0.00089569285
78	0x3ae659d7	0.0017574382
79	0x3b332714	0.0027336525
80	0x398f3707	0.00027316084
81	0xbba1b72f	-0.0049351673
82	0xbb3e87c6	-0.0029072626
83	0xbb673c8e	-0.0035283896
84	0x3b80d09a	0.0039311172
85	0xb9b99dcc	-0.00035403518
86	0xba7ff309	-0.0009763693
87	0x39b593e9	0.00034633212
88	0xbb1c79d9	-0.0023876338
89	0xbb0142c6	-0.0019723638
90	0xbac83f90	-0.0015277732
91	0xbbab9548	-0.0052363016
92	0xbab3dc62	-0.0013722295
93	0x3b683a43	0.0035435117
94	0x39a54083	0.00031519317
95	0x3ac4e72a	0.0015022506
96	0x3b2116e1	0.0024580287
97	0xba7d922b	-0.0009672965
98	0x3b63a752	0.0034737182
99	0xbba173af	-0.0049271206
100	0x3b9849ba	0.0046474608
101	0xba335ef7	-0.0006842459
102	0xbb03d39b	-0.002011514
103	0xbb8a8994	-0.0042278264
104	0xbac5e425	-0.00150979
105	0xbb5b8cfe	-0.0033500786
106	0x39e05429	0.00042787314
107	0xba1e9f3d	-0.000605095
108	0xba6d3066	-0.00090480444
109	0x3b65cdcb	0.003506529
110	0xba3f2a61	-0.0007292387
111	0xbb040bb9	-0.0020148589
112	0x3a266f04	0.000634894
113	0x3bc685fb	0.006058452
114	0x3b506772	0.003179994
115	0x3a17a080	0.0005784109
116	0x3a4ea447	0.00078827556
117	0x3bb7d826	0.0056104837
118	0xbb01f853	-0.001983185
119	0x3ba9fa9a	0.0051873447
120	0x3b245e7e	0.0025080736
121	0x3aead547	0.0017916345
122	0x3b86ac50	0.0041098967
123	0x3b8a8b6f	0.0042280476
124	0x3a8cdac4	0.001074635
125	0xba075491	-0.00051624427
126	0xbbf0cac3	-0.00734839
127	0x3a9ce59a	0.0011970282
128	0xba193c86	-0.00058455055
129	0xbb8b4d78	-0.0042511784
130	0x3b3cc4f6	0.0028803921
131	0xba8e2a84	-0.0010846411
132	0x3ae1f3bb	0.0017238775
133	0x3b5517f8	0.0032515507
134	0xbaeff467	-0.001830709
135	0x3a1c0022	0.00059509475
136	0xbb1143bd	-0.002216562
137	0xbb24bb66	-0.0025136112
138	0x3a225748	0.00061928155
139	0x3914ae0a	0.00014179214
140	0x3ba38004	0.004989626
141	0xbbcce766	-0.006253171
142	0xbb705c98	-0.0036676284
143	0x3a6228ed	0.0008627314
144	0xb9af58c0	-0.00033444725
145	0xbb216e53	-0.0024632409
146	0xba0f6e5b	-0.00054714613
147	0x3b871ade	0.004123076
148	0xbab9dd29	-0.0014180291
149	0x3a7eba93	0.0009717133
150	0xb9f1c90a	-0.00046116888
151	0x3b30ce7a	0.0026978538
152	0xbbafd32f	-0.005365751
153	0x3bcf3762	0.006323741
154	0xbae68cc8	-0.0017589564
155	0x3bbc49ea	0.005746116
156	0xba81cef3	-0.0009903595
157	0xb9e11819	-0.00042933298
158	0x3b5dd91c	0.003385133
159	0xbafe61b2	-0.0019407778
160	0xbb1d017d	-0.0023957186
161	0xb9bf6796	-0.00036507536
162	0xbb9f98fc	-0.004870532
163	0x3b272fa6	0.0025510578
164	0xbb3556b6	-0.0027670092
165	0xbb97496f	-0.0046169083
166	0xba4477aa	-0.0007494638
167	0x3b8fdeee	0.004390589
168	0xbb7fdc3e	-0.0039041187
169	0x3b7031f5	0.003665087
170	0xba839462	-0.0010038728
171	0xbaa16f40	-0.001231648
172	0xbb074ed1	-0.0020646343
173	0xbb307817	-0.0026927048
174	0xbba651ad	-0.0050756545
175	0xbb3df989	-0.0028987846
176	0xbbdc2fe7	-0.0067195776
177	0xbbbaa158	-0.005695503
178	0xbb0689df	-0.0020528955
179	0xba117764	-0.00055491016
180	0xbae70c46	-0.0017627559
181	0xbb0fa68f	-0.0021919345
182	0x3b20456a	0.0024455437
183	0xbad42ac9	-0.0016187067
184	0x3abea303	0.0014544431
185	0xb90b28e8	-0.00013271312
186	0x3b9e1167	0.004823852
187	0x3abb8357	0.001430611
188	0xbae36d50	-0.0017351303
189	0xbb84daa9	-0.0040543866
190	0x3b7f153e	0.0038922573
191	0xbb15ffb8	-0.0022888016
192	0x3bb2c1cf	0.0054552327
193	0x3b877f7a	0.0041350694
194	0xbabdb4be	-0.0014473421
195	0x3bcfe82c	0.0063448157
196	0x3ba1355d	0.0049196915
197	0x3aa4e6d6	0.0012581002
198	0xbb0ff74b	-0.0021967466
199	0xbbe2211d	-0.00690092
200	0x3a6ad9d6	0.00089588517
201	0xbb56fabd	-0.003280326
202	0x3ac62e9f	0.0015120095
203	0x3a6c3f69	0.00090121344
204	0xbb9fce39	-0.0048768786
205	0xb9a96183	-0.00032306844
206	0xbba51970	-0.005038433
207	0xbb7e15ff	-0.0038770435
208	0x3a27fa18	0.00064078113
209	0xbb4ec602	-0.0031551127
210	0x3bb84c9c	0.005624367
211	0x3a09a62d	0.00052508974
212	0x3ba8f282	0.0051558623
213	0xbbcf4c6e	-0.00632625
214	0x3a01b15d	0.00049473887
215	0x3a012529	0.0004926497
216	0xbba94491	-0.0051656445
217	0x3acf4e5d	0.0015816201
218	0xbaaee5dd	-0.0013343651
219	0xb93e06b2	-0.00018122306
220	0x39240f63	0.00015645991
221	0xbb096676	-0.0020965612
222	0xb9b955c5	-0.00035349853
223	0xbac6492a	-0.0015128006
224	0xbadf8042	-0.0017051774
225	0xbab93ef5	-0.0014133143
226	0x3aca79e9	0.0015447709
227	0x3b70df65	0.0036754247
228	0x3b8ad365	0.004236626
229	0x3a651321	0.0008738507
230	0xbb0b671d	-0.0021271177
231	0xbae9a93c	-0.0017826925
232	0xba1ba49a	-0.00059373083
233	0xbb2679e0	-0.0025402233
234	0xbb8ae2af	-0.0042384486
235	0xbb382b51	-0.002810199
236	0xb7403bb5	-1.1457993e-05
237	0xbb0aa468	-0.0021155123
238	0x3b68a252	0.003549714
239	0x3a8dd32d	0.0010820382
240	0xbb300b31	-0.002686214
241	0x3a80662d	0.0009796076
242	0xbb0310af	-0.0019998958
243	0xbb264c79	-0.002537517
244	0x3be38840	0.0069437325
245	0x3b8a717a	0.0042249532
246	0x3a0f968f	0.0005477452
247	0x3bf662c7	0.0075190994
248	0xb9ee4866	-0.00045448839
249	0x3a568d4b	0.00081845064
250	0x3b752849	0.0037408045
251	0xbb9bd77e	-0.0047559133
252	0xbb885d80	-0.0041615367
253	0xbbab0004	-0.0052185077
254	0x3b661d92	0.003511284
255	0xbb08e8ad	-0.0020890639

decoder.layers.0.mlp.experts.local_experts.1.linear_fc1.weight f4 [256, 32]
0	0x3c2f99ed	0.010717851
1	0xbb1028d2	-0.0021996987
2	0x3a53e6ba	0.0008083392
3	0xbc2a0889	-0.0103780115
4	0xba0e7b85	-0.0005435276
5	0xbc23a355	-0.009987672
6	0xbb6197b7	-0.0034422704
7	0xbb16df47	-0.0023021267
8	0x3c537d81	0.01290834
9	0x3c01237e	0.007881997
10	0x3aa1e8b8	0.0012352681
11	0xbaa1069b	-0.0012285294
12	0xba95076b	-0.0011370009
13	0xbbf6bb3d	-0.0075296448
14	0xbacb9714	-0.0015532696
15	0xbb41949b	-0.0029538039
16	0xbae1b1a6	-0.0017219081
17	0x3b6ae24f	0.0035840457
18	0xbb33832b	-0.0027391415
19	0xbbe2b865	-0.006918954
20	0x3acab121	0.0015464165
21	0xbbb2b94b	-0.0054542175
22	0xbb42e947	-0.0029741095
23	0xba8aa2a5	-0.0010577036
24	0xbb3680a5	-0.0027847674
25	0x3b0f7fbf	0.002189621
26	0x398111b0	0.00024617976
27	0xbb966b47	-0.004590425
28	0x3be5fc7a	0.007018623
29	0xb93e458f	-0.00018145725
30	0x3bb0bb94	0.005393455
31	0xbc314c15	-0.010821362
32	0xbb30925e	-0.002694271
33	0x3b51a843	0.003199116
34	0x3bc86b02	0.006116272
35	0x391f5509	0.000151951
36	0x3afc112b	0.0019231191
37	0xbb55f992	-0.0032649976
38	0xbb6c7b87	-0.003608437
39	0xbb2d87b9	-0.0026478602
40	0xb8d5f398	-0.00010202004
41	0x3bca8a83	0.0061810627
42	0xba836659	-0.0010025009
43	0xbbed2687	-0.007237259
44	0xbaacf6c9	-0.0013196106
45	0x3b0bb485	0.0021317315
46	0x3bbd4ca0	0.0057769567
47	0xbb3fad53	-0.0029247596
48	0x3b9c478b	0.004769271
49	0xbaae90b0	-0.0013318267
50	0xbb5a480a	-0.0033307099
51	0x3ba76681	0.005108655
52	0x3b0fc62c	0.0021938188
53	0xbbec698e	-0.0072147315
54	0x3b6e472e	0.0036358344
55	0x3bf40068	0.0074463375
56	0xba91ef61	-0.0011133963
57	0x3a36fecf	0.00069807185
58	0x3bde5518	0.0067850463
59	0xbb8e7c46	-0.0043483106
60	0xbad7627f	-0.0016432552
61	0xbbf7621d	-0.007549538
62	0xbc80bbef	-0.015714614
63	0xbc3d352b	-0.011548321
64	0x39d02e7a	0.0003970748
65	0x3c0ccfe4	0.008594487
66	0xbb6c64e5	-0.003607088
67	0xbc1b42ef	-0.009476407
68	0xbb03eda8	-0.0020130668
69	0xbb981553	-0.004641214
70	0x3c2b4935	0.010454466
71	0xbb8c1b36	-0.0042757047
72	0x3b3d5461	0.0028889405
73	0xb855327e	-5.0830182e-05
74	0x3b9b50bd	0.0047398494
75	0x3c0bec4e	0.008540226
76	0x3c1e4f7e	0.009662507
77	0x3b943354	0.0045227204
78	0xbafe7155	-0.0019412438
79	0x3b0cba2e	0.0021473276
80	0x3a512c7d	0.00079793466
81	0xba8ea606	-0.0010883219
82	0x3b281aa0	0.0025650635
83	0xba9b5743	-0.0011851568
84	0x3b67b2e9	0.0035354441
85	0x3c026222	0.007957967
86	0x3bacbbb6	0.0052714003
87	0xbbf1046d	-0.007355264
88	0xbb8d4cb8	-0.004312124
89	0xba4a0952	-0.00077070773
90	0xbbc3a2a7	-0.0059703174
91	0xbbd1b6bf	-0.006399959
92	0xbb2f9ceb	-0.0026796411
93	0xbaa531af	-0.0012603308
94	0xbbac7a65	-0.005263614
95	0x3b0af10b	0.0021200802
96	0xbbc1a970	-0.005910091
97	0x3ba6d463	0.0050912364
98	0xbac85aa5	-0.0015285803
99	0xbb8de158	-0.0043298416
100	0x3c30e682	0.010797145
101	0x3bfc24ed	0.0076948316
102	0xbc83d83d	-0.016094321
103	0x3b112c93	0.0022151812
104	0x39d29480	0.00040164962
105	0x3b92945e	0.004473253
106	0x3b9d1237	0.004793431
107	0x3c0d2d12	0.008616703
108	0xbbcd01ff	-0.0062563415
109	0xba017634	-0.0004938573
110	0x3b4d42d6	0.0031320355
111	0xbbbff3b9	-0.0058579114
112	0x3c2654ef	0.010152086
113	0xbb9f2a34	-0.004857326
114	0xbba1ad50	-0.0049339905
115	0xb9c004e1	-0.0003662473
116	0x3b259809	0.0025267622
117	0x3c2d055e	0.010560362
118	0xba7fef68	-0.00097631523
119	0xbba4a2a8	-0.005024273
120	0x3b893168	0.004186798
121	0x3bd9382b	0.00662901
122	0xbb2c8348	-0.0026323367
123	0x3c193c51	0.009352759
124	0xb9e2075f	-0.0004311157
125	0x3c659de1	0.014014692
126	0xbc2d99f5	-0.010595788
127	0xbbbac4df	-0.0056997384
128	0xbac624df	-0.001511719
129	0xb8b4ff99	-8.6306776e-05
130	0x3c65acf1	0.014018283
131	0x3bf010fd	0.007326244
132	0xbbfaff7d	-0.007659851
133	0x3bf9aced	0.0076194913
134	0x3b16a844	0.0022988478
135	0xbbfebdeb	-0.007774105
136	0xbc167f4f	-0.009185626
137	0xbb0ebde5	-0.0021780666
138	0xbba544a9	-0.0050435853
139	0xbb06907d	-0.00205329
140	0xbb3dd12e	-0.0028963792
141	0x3b9b4109	0.0047379774
142	0xbad36e4e	-0.0016130896
143	0xbc8a24b3	-0.016863203
144	0x39ddb4bd	0.00042287065
145	0xbbe65b30	-0.0070299134
146	0x3bc41212	0.0059835995
147	0xba1de50c	-0.00060232054
148	0xbc6568a0	-0.014001995
149	0xbc125bc5	-0.008933012
150	0xbb860182	-0.004089535
151	0xbbdcd037	-0.0067386883
152	0xbc2b9d8a	-0.010474572
153	0xbc54b731	-0.012983129
154	0xbac593e0	-0.0015073977
155	0xbbcf414c	-0.0063249227
156	0x3c0b27ee	0.008493407
157	0x3b8533ea	0.0040650265
158	0x3bf051e2	0.00733398
159	0xbc00f1af	-0.007870122
160	0x3b443487	0.0029938535
161	0x3ac19e5a	0.0014771924
162	0x3b20ff6f	0.0024566313
163	0xbb07b985	-0.0020709943
164	0xbc93eda9	-0.018057661
165	0xbc02c48b	-0.00798143
166	0xbb7cbd9a	-0.003856516
167	0x3bbc5e09	0.0057485146
168	0xbbb3080e	-0.0054636067
169	0xbb579cf2	-0.0032899943
170	0xb990a375	-0.00027587605
171	0xbb04471e	-0.002018399
172	0xbb897581	-0.0041949158
173	0x3b93c133	0.004509115
174	0xbb9d1091	-0.0047932346
175	0xbaa915ef	-0.0012900213
176	0x3b1acee2	0.0023621847
177	0xbbefb7ad	-0.007315597
178	0xbc6a4e22	-0.014300855
179	0xbb85751d	-0.004072799
180	0x3b992f4f	0.004674829
181	0xbc414eb0	-0.011798546
182	0xbb598842	-0.0033192788
183	0x3b595ead	0.0033168003
184	0x3b854885	0.004067483
185	0x3ab60cde	0.0013889333
186	0x3a449ce7	0.0007500187
187	0xbb5916bd	-0.0033125125
188	0x3ab1df90	0.0013570655
189	0xbb851cda	-0.0040622773
190	0xbace41e9	-0.0015736195
191	0x3af4e5e4	0.0018684235
192	0xbb1b33db	-0.0023682031
193	0x3ab49ba8	0.0013779299
194	0xbc734613	-0.01484825
195	0xbb122431	-0.0022299404
196	0x3beb81cb	0.0071871034
197	0x3b50b55c	0.003184638
198	0xbb93c8c3	-0.0045100166
199	0x3a6ae201	0.0008960069
200	0x3bb48c6a	0.0055099027
201	0xbb486dd9	-0.0030583052
202	0x3c0433c8	0.008068986
203	0xbc29882d	-0.010347408
204	0xbc17f959	-0.009275758
205	0x3c5f6677	0.013635269
206	0xbc6d84c5	-0.014496987
207	0xbafbbfbc	-0.0019206922
208	0xba7275a6	-0.00092490984
209	0x3b8f1be4	0.0043673385
210	0x3bd124d4	0.006382564
211	0x3b5a4ee1	0.0033311176
212	0xbb1586e6	-0.0022816001
213	0x3b4483f7	0.0029985884
214	0x3bada0ea	0.0052987235
215	0xb9121469	-0.00013931248
216	0x3b851c63	0.004062222
217	0xbb19801e	-0.002342231
218	0xba7fbb72	-0.00097554096
219	0x3b8bb41f	0.0042634155
220	0x3b22024c	0.0024720607
221	0x3c2fb97d	0.010725376
222	0xbc014d24	-0.007891927
223	0xbb86b3a1	-0.004110769
224	0x3be9d28e	0.007135696
225	0xb8c99d13	-9.613684e-05
226	0x3b673f7d	0.0035285645
227	0x3b4cecec	0.0031269146
228	0xbb0e2ff0	-0.0021696053
229	0x39540b91	0.00020222204
230	0xbb2be92a	-0.0026231506
231	0xbbc5bfdb	-0.006034834
232	0x3b7a1043	0.0038156665
233	0x3b80359c	0.0039126407
234	0xbb136f89	-0.00224969
235	0x3b27b7c6	0.0025591715
236	0xbb772b87	-0.0037715153
237	0xbb2b46f6	-0.0026134825
238	0xbbbdb0ac	-0.005788883
239	0x3b8867c1	0.004162759
240	0xbc12998e	-0.008947743
241	0xbab557a3	-0.0013835322
242	0x3b8571b2	0.0040723914
243	0x3b01f7e5	0.0019831595
244	0xbb882686	-0.004154983
245	0xbb507fb8	-0.0031814408
246	0x3ba89a22	0.005145327
247	0xbbaac144	-0.0052110273
248	0x38e1005e	0.000107289045
249	0x38b1d203	8.4791354e-05
250	0x3b817b71	0.003951483
251	0xb97a1954	-0.00023851293
252	0x3b3814d6	0.002808859
253	0xbab1c6dc	-0.0013563293
254	0x3c3596c4	0.011083309
255	0xbbffbb54	-0.0078043137
